data.pth (torch, 7786 bytes, 6 tensors)

l1.weight f4 [8, 98]
0	0x3edba167	0.42896578
1	0x3f77dcbc	0.9682119
2	0xbd215bfb	-0.03939436
3	0xbea17e79	-0.31541803
4	0xbec4d367	-0.38442537
5	0xbe8e0984	-0.27741635
6	0x3f0582ce	0.5215272
7	0x3d309589	0.043111358
8	0x3f0ca666	0.54941404
9	0xbe77e016	-0.24206576
10	0x3f186d1b	0.5954148
11	0xbf315e9c	-0.6928499
12	0x3f5d2d86	0.8639759
13	0x3ead2ac7	0.338217
14	0xbec3878a	-0.38189346
15	0xbf19507a	-0.5988842
16	0xbe6ea289	-0.2330419
17	0xbe6c298e	-0.23062727
18	0xbe259891	-0.1617148
19	0x3f4441bf	0.7666282
20	0xbeeca48d	-0.46219292
21	0xbe62a898	-0.22134626
22	0xbc3999c7	-0.011328167
23	0xbdb15145	-0.08658079
24	0x3e68bc00	0.22727966
25	0x3e2d549e	0.1692681
26	0xbf3b1ae8	-0.7308793
27	0xbf68d549	-0.9095045
28	0xbef41a5b	-0.47676358
29	0x3f2ace72	0.6672126
30	0x3f00b0a4	0.5026953
31	0x3f30bfdf	0.6904277
32	0x3f15d13f	0.5852241
33	0xbf6f7088	-0.93531084
34	0x3f6a3c96	0.91498697
35	0x3f88cd4e	1.0687654
36	0xbe541b74	-0.20713598
37	0x3da6009a	0.081055835
38	0x3f6e530c	0.9309547
39	0x3f452c0d	0.7702034
40	0x3f7bb58c	0.98323894
41	0x3ec42da9	0.38316086
42	0x3f1a4c15	0.6027234
43	0x3e82bf56	0.25536603
44	0xbed977d2	-0.42474228
45	0x3f032de5	0.51241904
46	0x3f4ad85f	0.79236406
47	0x3f19ef8c	0.60131145
48	0xbedee8e5	-0.4353706
49	0xbeace175	-0.3376576
50	0x3ec48f7d	0.38390723
51	0x3e023f7f	0.12719534
52	0x3e9d5599	0.30729368
53	0x3f23e822	0.6402608
54	0x3e642b39	0.22282113
55	0xbe15b608	-0.1462022
56	0x3e0197cd	0.12655564
57	0xbf0f2641	-0.55917746
58	0xbe7a2cff	-0.24431227
59	0x3f043f94	0.5165951
60	0x3e86f937	0.2636201
61	0xbf16476d	-0.5870274
62	0xbe96d64f	-0.2946038
63	0xbf222c5b	-0.6334893
64	0x3f5fbe5f	0.8739986
65	0x3f36da6f	0.71427053
66	0x3ee00f85	0.4376184
67	0xbe85b48a	-0.26114303
68	0x3f00629c	0.50150466
69	0xbf1de3f7	-0.6167597
70	0xbf4e7238	-0.80643034
71	0x3e7656c4	0.24056536
72	0xbe8e89a5	-0.2783939
73	0xbe996283	-0.2995797
74	0xbd7d2a27	-0.061807778
75	0x3eca943f	0.39566228
76	0xbe5f6783	-0.2181683
77	0x3f5b6ab5	0.85709697
78	0x3e513e5a	0.20433941
79	0x3e1e7081	0.15472604
80	0xbed0f097	-0.40808555
81	0x3f7f2f32	0.9968139
82	0x3ee88223	0.45411786
83	0x3eb37b76	0.3505513
84	0x3e5e9834	0.21737748
85	0xbea1ea5f	-0.31624123
86	0x3e8b6afb	0.27230057
87	0x3f062807	0.52404827
88	0x3ee65f97	0.44994804
89	0x3f66eb36	0.90202653
90	0x3e52702f	0.20550607
91	0x3e3bbf68	0.18334734
92	0xbec49c0d	-0.38400307
93	0x3d650c74	0.05592008
94	0x3daac223	0.0833781
95	0xbea0a9ff	-0.31379697
96	0x3e507d75	0.20360358
97	0xbee0de99	-0.4391983
98	0x3eab79ea	0.3349145
99	0x3df446d2	0.119275704
100	0x3e9943ad	0.29934445
101	0x3ee37e5f	0.4443235
102	0x3dd8ab94	0.10579601
103	0xbd8c7f67	-0.068602376
104	0x3c056e7e	0.008144019
105	0xbf08bdbe	-0.53414524
106	0xbe87e649	-0.2654288
107	0x3e9222ab	0.28542075
108	0x3e7922fd	0.24329753
109	0xbe7a4a91	-0.24442507
110	0xbe2fd0bf	-0.17169474
111	0x3ef7b15d	0.48377505
112	0x3ed70f7c	0.42004
113	0xbdbe5f29	-0.09295494
114	0x3edfabf2	0.4368587
115	0xbf2be03f	-0.6713905
116	0x3df47fa3	0.11938407
117	0xbeb78c62	-0.3584929
118	0xbef88104	-0.4853593
119	0x3f4d73a9	0.8025461
120	0xbe5ab091	-0.21356417
121	0x3e1a9423	0.15095572
122	0x3ecbf450	0.39834833
123	0x3f02b6de	0.51060283
124	0xbd905700	-0.07047844
125	0x3f3c1a1b	0.73477334
126	0x3ef05668	0.46940923
127	0x3f1e0dcd	0.6173981
128	0xbebbb146	-0.36658686
129	0x3f38d072	0.7219306
130	0xbe66cc12	-0.22538784
131	0x3f45f0cc	0.7732055
132	0xbf1595ec	-0.5843189
133	0x3ecff2f5	0.4061505
134	0x3c258b95	0.01010408
135	0xbe94cba8	-0.29061627
136	0xbf157b7f	-0.58391565
137	0xbeb2d368	-0.34926915
138	0xbf157ece	-0.58396614
139	0x3eac8a4d	0.33699265
140	0x3da76137	0.08172839
141	0x3f01f68e	0.5076684
142	0x3e6cf5bc	0.23140615
143	0x3e9d2f65	0.30700222
144	0x3f2c79c9	0.6737333
145	0xbf13a2fe	-0.5767058
146	0xbe959b42	-0.29220015
147	0x3f2782f8	0.6543422
148	0x3f39b0e4	0.7253554
149	0x3ea29f75	0.3176228
150	0xbe09cc26	-0.13456783
151	0x3e7ace4d	0.2449276
152	0x3dde92ec	0.10867867
153	0x3ebaa9d4	0.36457694
154	0x3edf4578	0.43607688
155	0xbe982459	-0.2971523
156	0x3e19b8e2	0.15011933
157	0x3e10f583	0.14156155
158	0x3f50877b	0.81456727
159	0xbe2f4f34	-0.17120057
160	0x3eb3a61d	0.35087672
161	0x3f08a285	0.53372985
162	0x3f47ce1b	0.78048867
163	0x3f1f509e	0.6223239
164	0xbe242e78	-0.16033351
165	0xbe972011	-0.29516652
166	0x3e7ba581	0.24574853
167	0xbed75036	-0.42053384
168	0xbd9228dd	-0.071367
169	0xbee3a582	-0.4446221
170	0x3da8e226	0.082462594
171	0xbe927e02	-0.2861176
172	0x3e1eda3d	0.15512939
173	0xbedad4de	-0.4274053
174	0x3e769648	0.24080765
175	0x3f40e184	0.7534411
176	0x3ea1c5bd	0.31596175
177	0x3e5c815d	0.21533723
178	0x3f0a3f1c	0.5400255
179	0xbe9d7808	-0.3075564
180	0x3ed44a5f	0.4146299
181	0x3dfa6799	0.12226791
182	0x3ed48b1b	0.4151238
183	0xbe5dcb5c	-0.21659607
184	0x3ef7d3f9	0.4840391
185	0x3f090dc2	0.5353662
186	0xbed8f007	-0.42370626
187	0x3f2b4201	0.6689759
188	0x3ede6da9	0.4344304
189	0x3ebf153c	0.37320888
190	0x3e99c12c	0.3003019
191	0x3f15827a	0.58402216
192	0x3ed354ca	0.41275626
193	0x3edbad5b	0.42905697
194	0x3e67b680	0.22628212
195	0xbd4bdf4e	-0.049773507
196	0x3b443e32	0.0029944298
197	0xbd264db1	-0.040601436
198	0x3e9570a3	0.29187497
199	0x3e8e637e	0.27810282
200	0x3f148ff0	0.5803213
201	0x3eba25d1	0.36356977
202	0xbee4bb45	-0.44674125
203	0xbef5d58d	-0.4801449
204	0x3ef37d01	0.47556308
205	0x3e4b8929	0.19876541
206	0x3ddd124b	0.10794505
207	0xbda6de27	-0.08147841
208	0xbd0d3354	-0.03447278
209	0x3ea84620	0.32866
210	0x3eac940e	0.33706707
211	0x3e316d7b	0.1732692
212	0x3eaa4afb	0.3326033
213	0xbf52f1d8	-0.82400274
214	0x3e8cb539	0.27482012
215	0xbed71f7c	-0.42016208
216	0xbc880a1a	-0.01660638
217	0x3e12ee4f	0.1434872
218	0xbe82424e	-0.2544121
219	0x3df06d7a	0.11739631
220	0x3e8a2d86	0.26987857
221	0x3ee2ee7c	0.44322574
222	0x3e9f167c	0.31071842
223	0x3f7554ff	0.9583282
224	0x3e9a6f5a	0.3016308
225	0x3f3793ea	0.71710074
226	0xbebd94bd	-0.3702754
227	0x3edffdcb	0.43748316
228	0xbe8fb890	-0.28070498
229	0x3f672dbe	0.9030417
230	0xbf336d7e	-0.70088947
231	0x3f534292	0.82523453
232	0x3f121337	0.5706057
233	0xbec0fffd	-0.37695304
234	0xbf337125	-0.7009452
235	0xbf1df11f	-0.61696047
236	0xbf337079	-0.70093495
237	0xbeb6d5c0	-0.35709953
238	0xbed42830	-0.4143691
239	0x3e4741cb	0.19458692
240	0x3f1aa201	0.6040345
241	0x3f19bc72	0.6005317
242	0x3f1ba550	0.6079912
243	0xbe4b9f6e	-0.19885036
244	0x3e31f4e1	0.1737857
245	0x3f106fb7	0.56420463
246	0x3e1a7c8f	0.15086578
247	0x3e679365	0.2261482
248	0x3f15798c	0.5838859
249	0xbe81d8f6	-0.2536084
250	0x3e0b1b7c	0.13584703
251	0x3e639208	0.22223675
252	0x3ec30b61	0.3809462
253	0x3e2b78c8	0.16745293
254	0xbde3c34d	-0.11121235
255	0xbe7eaa2d	-0.24869604

l1.bias f4 [8]
0	0x3f7dc623	0.9913046
1	0x3f158167	0.5840058
2	0x3f336ba0	0.700861
3	0x3f483872	0.7821113
4	0x3f6c56c0	0.9231987
5	0x3f0d8183	0.55275744
6	0x3f8b5769	1.088605
7	0x3f210c28	0.62909174

l2.weight f4 [8, 8]
0	0x3db099da	0.08623095
1	0xbe96c98a	-0.29450637
2	0x3d804d41	0.06264735
3	0xbe867e39	-0.26268175
4	0xbea4cd3c	-0.3218783
5	0xbe640413	-0.22267179
6	0x3e051298	0.12995374
7	0xbea2af51	-0.3177438
8	0x3f2d12dd	0.6760691
9	0x3fcfe788	1.6242533
10	0x3fac0131	1.3437864
11	0x3f375027	0.7160668
12	0x3f5e466e	0.8682622
13	0x3f83998f	1.0281237
14	0xbfab4b3d	-1.3382336
15	0x3f9baba7	1.2161759
16	0x3f284433	0.65729064
17	0xbef9121c	-0.4864663
18	0xbe9256ed	-0.28581944
19	0xbe6f7e0c	-0.23387927
20	0x3fa5190a	1.2898266
21	0xbf75dd99	-0.96041256
22	0x3fbc5f05	1.4716498
23	0xbf852920	-1.0403175
24	0x3eeba2d5	0.46022668
25	0xbed396a6	-0.41325873
26	0x3f68fb84	0.9100878
27	0xbf096635	-0.5367158
28	0xbeae435a	-0.3403576
29	0x3fbf505a	1.4946396
30	0xbeb2aa8e	-0.34895748
31	0xbef5f746	-0.48040217
32	0xc010bb29	-2.2614233
33	0x3eae6bfc	0.3406676
34	0x3f8ae85a	1.0852158
35	0x3faa54c4	1.3307118
36	0x3f2324de	0.6372813
37	0xbcdc833b	-0.026918044
38	0x3f601797	0.87535995
39	0xbe608af1	-0.21928002
40	0x3fbcf69b	1.4762758
41	0x3f264fd4	0.6496556
42	0xbe726898	-0.23672712
43	0x3fb81e7e	1.4384305
44	0xbe1af04d	-0.1513073
45	0xbf9ac9c9	-1.209283
46	0x3dcd3a12	0.10020842
47	0x3fa99ed6	1.3251598
48	0x3f2f18e5	0.6839736
49	0x3f1b9bd3	0.60784644
50	0x3f9ec26d	1.2403084
51	0xbfb4fba3	-1.4139293
52	0x3dbeff86	0.09326081
53	0x3fa30cac	1.2738242
54	0x3f2e7daf	0.6816053
55	0xbf49f65c	-0.7889154
56	0x3edf933f	0.43667027
57	0xbf1445e0	-0.5791912
58	0xbf60dbb7	-0.8783526
59	0x3f6846cc	0.9073303
60	0x3fa79f17	1.3095425
61	0x3d1ba07a	0.03799484
62	0x3e50480e	0.20339987
63	0x3d11e85c	0.035621986

l2.bias f4 [8]
0	0xbe8558fd	-0.26044455
1	0x3e382b6e	0.17985317
2	0x3f32dfa8	0.6987252
3	0x3e4f8172	0.20264223
4	0x3f507072	0.8142158
5	0x3f2d9696	0.678079
6	0x3ebd90e8	0.37024617
7	0x3f0f5fc3	0.56005496

l3.weight f4 [14, 8]
0	0x3e3fd216	0.18732485
1	0x3e43c1f2	0.19116953
2	0xbfe561d3	-1.7920479
3	0xbf695f1d	-0.91160756
4	0xbf68924a	-0.9084822
5	0x3f11d574	0.5696633
6	0xbfc68fb2	-1.5512602
7	0x3f3bd0f1	0.73365694
8	0xbe2dc8a7	-0.16971074
9	0x3e68c106	0.22729883
10	0x3e80c0b5	0.25147024
11	0xbfd43a9f	-1.658039
12	0xbf83d975	-1.0300738
13	0xbe0ba534	-0.13637239
14	0x3e8d902b	0.27649054
15	0xbf02ce29	-0.51095825
16	0xbdad2c6a	-0.08455737
17	0xbede392d	-0.43402997
18	0xbdc656a2	-0.09684493
19	0xbf88da32	-1.0691588
20	0x3f5119af	0.81679815
21	0xbd1c99ad	-0.038232494
22	0xbfe28e1b	-1.7699617
23	0x3e75e65c	0.24013656
24	0xbe3bccf2	-0.18339899
25	0x3eda1bbe	0.4259929
26	0xbeaf2bde	-0.34213156
27	0xbfc3ed2d	-1.5306755
28	0xbd0afd26	-0.033932827
29	0xbed0ddc1	-0.40794185
30	0xbf34a68e	-0.7056664
31	0x3eb76cb3	0.35825118
32	0xbc34ebf6	-0.011042586
33	0x3e23e78f	0.16006301
34	0xbfe13c3f	-1.7596511
35	0xbd4bd7aa	-0.04976622
36	0x3f36a005	0.7133792
37	0xbeccddee	-0.4001307
38	0x3ef97a10	0.4872594
39	0xbfb9ca91	-1.4514943
40	0x3e542737	0.20718084
41	0xbe9cd5f1	-0.30631974
42	0x3ed857c3	0.42254457
43	0xbef59328	-0.47963834
44	0xbf4904ce	-0.78522956
45	0x3f112008	0.566895
46	0xbfefe99d	-1.8743168
47	0x3f0f77e7	0.5604233
48	0x3e2335fd	0.15938564
49	0x3eda0916	0.42585057
50	0xbfb374f6	-1.4020069
51	0x3e2c7c28	0.16844237
52	0xbfa2fa4b	-1.2732633
53	0xbe21a763	-0.15786509
54	0x3e15d873	0.1463335
55	0x3e0d6b4d	0.13810463
56	0xbe30bab2	-0.17258719
57	0xbfa8244a	-1.3136075
58	0x3f15e3a9	0.58550507
59	0xbef78372	-0.48342472
60	0xbf2ef38c	-0.68340373
61	0x3db80a56	0.089863464
62	0x3ee8c880	0.4546547
63	0xbcfe9152	-0.031075153
64	0x3d377573	0.044789743
65	0x3e8f8480	0.28030777
66	0xbfc9221b	-1.5713533
67	0xbfa6e64b	-1.303903
68	0x3f48a2fa	0.7837368
69	0x3e4f34e6	0.20235023
70	0xbfefecb4	-1.8744111
71	0xbf2944f8	-0.6612086
72	0xbbed566c	-0.0072429683
73	0xbfcdbdca	-1.6073544
74	0x3ef3f271	0.47645906
75	0xbf7075d6	-0.93929803
76	0x3ef9d30f	0.48793837
77	0xbf13585d	-0.57556707
78	0xbf808247	-1.0039757
79	0x3f3017c3	0.6878626
80	0xbd97ce28	-0.07412368
81	0xbdd8f859	-0.105942436
82	0xbf2c130a	-0.6721655
83	0x3f685a96	0.90763223
84	0xbfb58b61	-1.418316
85	0xbf01614c	-0.5053909
86	0x3f806fa0	1.0034065
87	0xbfacee91	-1.3510305
88	0xbdf10d48	-0.11770111
89	0x3e3bf902	0.18356708
90	0x3da9b5eb	0.08286651
91	0xbd827a0f	-0.06370937
92	0xbe29f6c3	-0.16598038
93	0xbfad940c	-1.3560805
94	0x3e90efcd	0.28307953
95	0xbeb678e1	-0.35639098
96	0x3e6bc323	0.23023658
97	0xbf59e7ce	-0.8511933
98	0x3ef7e097	0.48413536
99	0xc00e6c42	-2.2253575
100	0x3f1e9b47	0.61955684
101	0xbfc10e89	-1.5082561
102	0x3ec9477d	0.39312354
103	0xbed9e210	-0.42555285
104	0x3e8545d8	0.2602985
105	0x3ef57c31	0.47946313
106	0xbf88ebbd	-1.0696942
107	0xbfa8634b	-1.3155302
108	0xbf4db56f	-0.8035497
109	0x3f0080b0	0.5019636
110	0xbf1d4344	-0.61430764
111	0xbfa4b09b	-1.2866396

l3.bias f4 [14]
0	0xbeb09982	-0.34492117
1	0xbe8b9b3d	-0.27266875
2	0x3d849f19	0.06475658
3	0xbd90f500	-0.0707798
4	0x3ef54fb3	0.47912368
5	0x3e713611	0.23555781
6	0xbe17dc07	-0.14830028
7	0xbe51e768	-0.2049843
8	0x3e1aa288	0.15101063
9	0x3e34b49b	0.1764702
10	0x3ed1002a	0.40820438
11	0xbedbd3ad	-0.42934933
12	0x3e8879a4	0.26655304
13	0x3bdbef09	0.006711845
